lenet.pth (torch, 128671 bytes, 4 tensors)

Conv.0.weight f4 [16, 1, 5, 5]
00000000: 9945 373f c810 443f 7ca0 763f 6de9 6f3f
00000010: f0fd fc3d a4e5 853f 788a 463f a09e 023f
00000020: 775e 323d 1229 48bf 0166 193f f13d 7f3c
00000030: 5d24 b5be b244 73bf b664 9abf 7d39 6ebf
00000040: 5397 94bf fddd c2bf bca1 8cbf 7b92 20bf
00000050: d5dc dfbf 30dd cebf 5623 60bf af2a 51be
00000060: a869 9b3d 6e1c b23d 83e2 a33e 7a4c e13e
00000070: de46 c2bc fa3f 65be 5dae b33e 0c89 1e3f
00000080: f29a 1e3f a6d8 8cbd 99fc 53bf 29ba 223e
00000090: 174d 253f 40ad d13e 2570 63bd 6c3f 7abf
000000a0: e23c 023f efa8 aa3e 15ed b53e 24f4 11bf
000000b0: 171b 92bf e540 443e 2b99 bdbd 7643 a1be
000000c0: 6e77 6ebf ff59 5abf b6a5 67bf b3f4 9fbf
000000d0: e8df efbd 966c 933e 41c5 123f 8a33 93bf
000000e0: a8e4 48bf bc42 8e3e e366 493f 23d4 b23e
000000f0: d70b 80bf b27c 783e e2ce 563f df04 363f
00000100: 19aa 00bf 6b1b 31be e0c3 123f 41fb 2a3f
00000110: a896 11be e0d9 b2bf 090e 323d c9ea 083e
00000120: 004e f0bd 8fe0 5abf c5a4 84bf 91f2 4fbf
00000130: 7d52 ffbe 22f3 79bc 6df4 b5bc 3b4a b03e
00000140: 025c 95bf 5b1a 65bf 344e ffbe b8d5 9bbe
00000150: fc42 2fbe 6646 66bf 3820 8dbf b8ff 67bf
00000160: 8587 5bbf 423f 2ebf edf7 6ebe 822a 2bbf
00000170: 3a00 60bf ce4b 6cbf e19a 8fbf f9f9 863e
00000180: 1c64 803e def6 c4bd d3df 1ebf 61f4 16bf
00000190: fb1b f33e ad64 f03e a422 fd3e 3c4f b93e
000001a0: be28 743d 98f2 123f a748 8e3f f39f 3b3f
000001b0: 6f2c 463f 695a 343f eb3e 453f 24a2 743f
000001c0: 7d54 573f 5d7c a73e 874a df3e 9635 fa3e
000001d0: 7d8a 233f decb dd3e 8757 aabe aec4 3fbf
000001e0: 7fd7 adbd 698e 0e3e 8efd b2bd 295a 7dbf
000001f0: 86da 89bf 8ded b7bf 51ee 8cbf c63f 31be
00000200: db58 ce3e 08c3 ed3e 81ba 5cbf 41fd bbbd
00000210: 7114 da3e 9dfc 2f3f 8c5c 133f ccf4 1b3f
00000220: abc5 253f bf91 013f 8041 ef3e 681b 7c3e
00000230: 70a2 b33e 6443 c33e c6da de3e 0b39 6b3f
00000240: 44ca 303f fa5a 80be 128c b93d 7ca6 fe3e
00000250: 699d 573f eb83 213f 50c7 d1be 08bb ddbc
00000260: 13ff f6be f223 3bbf 2c3a b6bf 7865 95bf
00000270: d784 bebf 33b1 e9bf a349 a9bf f96a a6bf
00000280: 4e74 b2bf 4973 75bf ad2f 25bf 2828 89be
00000290: 37e4 c0be 72b1 30bf 8074 4cbe 16a1 373e
000002a0: 0041 f63d 8dcb df3e c304 82be 1789 d93e
000002b0: eaf1 473f 7d5f 863f 2a62 a83f 68d3 aa3f
000002c0: 6c13 633f 19d5 7b3e 1157 3ebf 256d 9fbf
000002d0: 7197 3b3f 07f4 e73d a7a6 6fbf f582 bdbf
000002e0: 00b1 adbf 4c76 8b3e 8f9f 94bf 6028 07c0
000002f0: 5641 a9bf 5b86 8dbe 0f15 7fbf 9fb6 01c0
00000300: aaa4 b2bf a232 d0bd 2b5b 183f efef cdbf
00000310: 1d6a 7dbf 5f84 633d 6b8c 333f 5937 0a3f
00000320: 59d2 64bf 1b3f 6bbf e7ba 80be 405a 04be
00000330: 7c0d 5a3e 0515 01bf 35dd 963c eb99 9a3e
00000340: 4ae2 af3e f0a5 af3e c18e 103f f0c1 433f
00000350: 9600 a33e 6ccc bb3e 55af a43e ddcf 1f3f
00000360: 4fb9 c63e 5e4d 22be 7797 04be d6e3 893e
00000370: 60d9 2ebf 1c4a 10bf e0b1 4cbf 2bd8 00bf
00000380: 3a4d 47bc 2c11 a7bd bc29 393f dc3e 8f3f
00000390: 574b 973f d2b1 a23f c504 41bf 80d4 0abd
000003a0: 6da8 033f c04b f23e 1811 5a3f f0c5 a5bf
000003b0: 3f41 61bf f1d4 f5be 94d8 8cbe 6a8c 03bf
000003c0: e9b6 c3bf d12d cebf 10cf e3bf 6b1e d2bf
000003d0: 0c57 d3bf 83fe f63d 21c1 a5be c121 5fbf
000003e0: cf74 42bf adf4 3abf 4396 773e f993 c13e
000003f0: a40b d73e e488 f13e 4ab5 c23e c80c 253f
0.7159057 0.76588106 0.9633863 0.93715554 0.12353122 1.0460706 0.77555037 0.5102329
0.04354712 -0.7818767 0.5992127 0.015578733 -0.35379305 -0.95026696 -1.2061985 -0.9305647
-1.160868 -1.5223995 -1.0986857 -0.6272351 -1.7489268 -1.6161251 -0.8755392 -0.20426439
0.07588512 0.08696829 0.32008752 0.4400366 -0.023715433 -0.22387686 0.35093966 0.61927867
0.6195518 -0.0687726 -0.8280731 0.15891327 0.64570755 0.40952492 -0.05552687 -0.97753024
0.5087415 0.3333201 0.35532442 -0.57013154 -1.1414517 0.1916538 -0.0925773 -0.3149678
-0.93150985 -0.85293573 -0.9048723 -1.2496551 -0.117126286 0.28793782 0.57332236 -1.1500103
-0.784739 0.2778529 0.7867262 0.34927472 -1.0003613 0.24266317 0.8390943 0.7110118
-0.5025955 -0.17295615 0.5733013 0.66789633 -0.14217627 -1.397274 0.043470416 0.13370813
-0.11733627 -0.854989 -1.0362784 -0.812295 -0.4986762 -0.015255721 -0.022211278 0.34431633
-1.1668704 -0.8949334 -0.49864352 -0.30436492 -0.17115396 -0.8995117 -1.1025457 -0.9062457
-0.8575366 -0.68065274 -0.23336764 -0.66861737 -0.87500346 -0.9230317 -1.121914 0.2636259
0.25076377 -0.09617399 -0.6206028 -0.5896664 0.47482285 0.4695181 0.4944049 0.36193264
0.059609167 0.5740142 1.1115922 0.7329094 0.7741155 0.70450455 0.7704913 0.95559907
0.84113294 0.3271207 0.43611547 0.48869008 0.6388319 0.433196 -0.33269903 -0.74909484
-0.08488368 0.13921513 -0.08739768 -0.989657 -1.0769813 -1.436937 -1.1010228 -0.17309484
0.40302166 0.4643786 -0.8622208 -0.09179164 0.4259372 0.6874483 0.5756309 0.60920405
0.6475474 0.50613016 0.4672966 0.2461983 0.35084867 0.38137352 0.43526286 0.91883916
0.6905863 -0.2506941 0.090599194 0.49736392 0.84224564 0.63091916 -0.40972376 -0.027066723
-0.4824148 -0.73101723 -1.4236503 -1.1671591 -1.488429 -1.8257202 -1.3225597 -1.3001395
-1.3941743 -0.95879036 -0.6452587 -0.2678845 -0.37674114 -0.6902076 -0.19966316 0.17932543
0.120241165 0.43709984 -0.25394258 0.42487404 0.78103507 1.0497891 1.3154957 1.3345766
0.8870151 0.24593009 -0.743516 -1.2455183 0.73277956 0.113258414 -0.93613666 -1.480559
-1.3569641 0.2723869 -1.1611193 -2.1118393 -1.3223064 -0.27641568 -0.9964151 -2.0267713
-1.3956501 -0.101659074 0.5951411 -1.6088847 -0.9899004 0.05554616 0.70136136 0.53990704
-0.89383465 -0.91893166 -0.25142595 -0.12925053 0.21294206 -0.504227 0.018416027 0.30195555
0.34352332 0.34306288 0.56467825 0.764678 0.31836385 0.366794 0.32165018 0.6242655
0.38813254 -0.15849826 -0.12948404 0.26931638 -0.6830044 -0.5636308 -0.79958916 -0.50329846
-0.012164408 -0.08157572 0.72329307 1.1191058 1.1819867 1.2710516 -0.753979 -0.033894062
0.5142887 0.47323418 0.85182333 -1.2951031 -0.8799018 -0.48014024 -0.27508986 -0.5138613
-1.5290195 -1.6107732 -1.7797565 -1.6415533 -1.651094 0.12060263 -0.32373908 -0.8716088
-0.75959486 -0.73029596 0.24178414 0.37808207 0.4200107 0.47174752 0.38028938 0.6447263

Conv.0.bias f4 [16]
00000000: 4313 87bf 3b1a 86bf b418 7ebf a11a b3bd
00000010: 66f6 88bf 24be 95bf 0a0b f8be a5f8 d1be
00000020: 61a7 a9bf 6418 39bf 95f7 91bf 5f03 8bbd
00000030: ef5f d7be 43e5 87bd 2f2f 67bf 5534 91bf
-1.0552753 -1.0476755 -0.99256444 -0.087453134 -1.0700195 -1.1698651 -0.48445922 -0.41010013
-1.3254205 -0.7230284 -1.1403681 -0.06787752 -0.4206538 -0.06635525 -0.9030637 -1.1344095

Out.weight f4 [10, 3136]
00000000: 175e d6bb 0455 bd3c 2a6f 5ebb 8810 d63a
00000010: c297 adbb c883 d13c 0f0b 873c 9255 fd3c
00000020: 6730 b53c 0fd4 dc3c 0c55 9f3b ad3a b9bb
00000030: 7ab9 2e3c 018b c73b fdc4 bf3b aba9 3dba
00000040: d481 6e3c 1361 bb3c bc5e d73c 20e1 f53b
00000050: cda7 053d 3479 463d bad2 563d c580 603d
00000060: 9e44 3b3c e665 083d a8ac 35bb 226d 9c3c
00000070: 59c0 123c e621 9f3c e03a 313c e8d1 263d
00000080: 972a a23c 6060 0ebd 4cb8 85bd 0b8f 84bd
00000090: 7314 1bbd c60d 72bd eb67 74bd 7c03 8cbd
000000a0: 484f b8bc cc49 0bbc 8701 8c3c e55e 963b
000000b0: 6ac6 af3c defa 36bc bb6e a9bd cb4c 0cbe
000000c0: a11a e2bd 67ef 8ebd d161 37be b084 62be
000000d0: 4150 19be 0f52 2abe 6f8d 87bd 06c4 96bc
000000e0: 4338 ca3c 0a76 f13c c851 aa3c 5376 8bbc
000000f0: 4180 a0bd 61c2 c83a d4db aebd 6f53 29be
00000100: 328b 49be 63c7 92be 32f3 87be c7a1 34be
00000110: 52b5 12bd b9fa a8bc 3c22 d5bb 7805 173d
00000120: 3faf 4ebb 8f15 0ebd 79d8 943d 5559 bcbc
00000130: a69c 69bc f15b afbc e88e b2bd 4578 5fbe
00000140: de93 86be 5dc6 7ebe 0eaa ecbd 5126 81bc
00000150: b192 86bb 0aae 2b3c 9598 a1bd efac a4bd
00000160: 6d1b 1ebd 9747 2bbe 0b4b dbbc 5551 173d
00000170: e409 09be 0d82 4cbe 39ce 19be dded 11be
00000180: 3b49 cbbd c5f9 47bc f9e3 963c d944 d838
00000190: 412b bcbd 96b3 e7bd cc0a a6bd c56d a4bd
000001a0: f39b 753b 0780 b23c 0a27 7dbe 0eda 94bd
000001b0: f35c bfbc dfb8 a7bd 0ed3 f4bb c5c5 ea3c
000001c0: 136b 793a 8084 bebb 8f7b 2dbd c92b a5bd
000001d0: 7dea ffbd 1aba 8cbd 4d6a c0bb 1c4a 06be
000001e0: 9b8b e9bd c446 8a3d bf2c 6438 10b6 03bd
000001f0: 7b9a 243d 0d6c 293d 1049 b4ba 9d32 97bb
00000200: 110f 8bbd 9e63 f0bd 039d 75be b327 36be
00000210: 15ff 02be 79e6 1f3d 4c4e 9b3d bdc0 ba3d
00000220: 383f 7b3d 966f f6b8 5370 3c3d 4fb4 103d
00000230: 3152 be3c 84d9 4fbc 7a40 a3bd 0c13 30be
00000240: c32f 79be 6121 3bbe e002 afbc 52b3 e2bc
00000250: 3734 ca3d 16c9 e83d ac64 4c3d 227e ef3c
00000260: 8d7f 723d e5af 563c 20aa a73c 2215 433c
00000270: 00dd e0bc d5c5 7ebd a91d cfbd 1c1c c0bd
00000280: 6d92 8abc d2d4 f63c 8835 3d3d e8a6 553d
00000290: fa42 e63c 0862 803c cfe7 353b 2b26 8f3c
000002a0: c633 473c c91f 23bc 5622 913b a27a 543d
000002b0: 3c26 0c3c 23b8 8d3a cc8d 323d 990a 993d
000002c0: 7b05 733d 1735 5d3c 39c8 aebc 85ae 60bc
000002d0: 8a98 8e3a 0049 29bb fff9 ec3b 4b2a bb3c
000002e0: 6def 1d3c 518f 7bbc bb7d 78bc 8926 fabc
000002f0: 1034 f2bc 62ba 0cbd db63 b3bc 0e12 0abd
00000300: caf4 68bd 4871 72bc 83a1 f53a f5e9 6c3b
00000310: 0130 023b d463 403c 9e59 3e3c 6e44 9f3c
00000320: 5bfa 5d3c 182e 683c 61c1 d23c 99cc 573c
00000330: b069 d53b 513c c0bb 3c74 4d3c 88e7 cc3b
00000340: 6f79 8d3c 1eed c23c 85b0 3a3b b403 a93c
00000350: 652b 073c 1729 a13c 0bfb 7c3a b741 82bc
00000360: d83c a13c fe4d 123c 454b 05bd 52d4 c7bc
00000370: 12cc c6bc 1c93 8fbc 2fee 85bc 6f53 0dbc
00000380: 4e4f ae3b 1989 c23b 039a 983c 2011 87bb
00000390: 0786 5bbd 60d0 98bd 3440 52bd afbb 183d
000003a0: 49fc e0bc e95d 0dbd 56a7 73bd ac02 81bc
000003b0: 6c3f 26bc ca17 81bc 91c4 8cbb 9e78 7b3b
000003c0: fe49 67bc 53e3 f5bc a77f c0bd 9b6c bfbc
000003d0: eb77 c3bb 18c9 00bd 682e 81bc 31cf ecbb
000003e0: 90e1 8bbb 63ad 823b e38f 313d cde8 bfbc
000003f0: 3802 34bc 4ba9 a73a 0ef8 f4bb 0111 76bd
-0.006541978 0.023111828 -0.003394077 0.0016331831 -0.005297632 0.025575534 0.016484765 0.030924592
0.022117807 0.026956586 0.0048624333 -0.0056527467 0.010664338 0.0060895686 0.0058523403 -0.00072350603
0.014557321 0.022873437 0.02629029 0.0075036436 0.03263073 0.048455432 0.05244706 0.054810304
0.011429934 0.033300303 -0.002772132 0.019095007 0.008956992 0.019425344 0.01081726 0.040727526
0.019795699 -0.03475988 -0.065292925 -0.06472596 -0.0378613 -0.059095167 -0.059669416 -0.06836602
-0.022498742 -0.008501481 0.017090572 0.004588949 0.021456916 -0.01116821 -0.08273073 -0.13701169
-0.11040235 -0.06979256 -0.17908408 -0.22120929 -0.1497202 -0.16632865 -0.06618773 -0.018404018
0.02468503 0.02947523 0.02079095 -0.017024195 -0.078369625 0.0015316718 -0.08538023 -0.16535734
-0.19682005 -0.28667745 -0.2655273 -0.17639838 -0.03581745 -0.020627366 -0.006504325 0.03687045
-0.003153756 -0.03468853 0.072678514 -0.022991816 -0.014258539 -0.021406146 -0.087186635 -0.21823223
-0.2628469 -0.24880357 -0.11555873 -0.015765341 -0.0041068424 0.010478506 -0.07890431 -0.08040797
-0.038600374 -0.16726528 -0.026769182 0.0369428 -0.13382679 -0.19971485 -0.15020074 -0.14250894
-0.09926077 -0.012205546 0.018419253 0.000103125065 -0.091879375 -0.1131355 -0.08107528 -0.080287494
0.0037476986 0.021789564 -0.24721923 -0.07268153 -0.023359751 -0.08189558 -0.0074714487 0.028658757
0.00095145515 -0.005814135 -0.042354163 -0.08064992 -0.12495897 -0.068714336 -0.005872047 -0.13114208
-0.11403581 0.06751779 5.440111e-05 -0.03215605 0.040186387 0.04136281 -0.0013754684 -0.004614188
-0.06789983 -0.117377505 -0.23985676 -0.17788582 -0.12792619 0.039038155 0.07583293 0.09118793
0.061339587 -0.000117509786 0.04600556 0.035328206 0.023232551 -0.012686137 -0.07971282 -0.17194766
-0.24334626 -0.18274452 -0.021363676 -0.027673397 0.098732404 0.11366479 0.049900696 0.02923495
0.059203673 0.01310346 0.020466864 0.011906894 -0.027449131 -0.062200386 -0.10113079 -0.093803614
-0.016915524 0.030130778 0.04619363 0.052161127 0.028108109 0.015671745 0.0027756577 0.017474255
0.01215834 -0.009956309 0.004429142 0.051874764 0.008554038 0.0010812323 0.04359226 0.074727245
0.0593314 0.013501427 -0.021335708 -0.013713484 0.00108792 -0.0025830865 0.0072319503 0.022847315
0.009639603 -0.0153539935 -0.015166695 -0.030535953 -0.029565841 -0.034357436 -0.0218982 -0.033708625
-0.056874074 -0.014797516 0.0018740151 0.0036150191 0.0019865038 0.011742551 0.011618046 0.01944181
0.013548459 0.014171146 0.025726976 0.0131713385 0.006512843 -0.0058665653 0.0125399195 0.0062531866
0.017269818 0.023794707 0.0028486561 0.020631649 0.008250092 0.019672913 0.00096504454 -0.015900476
0.019682333 0.008929728 -0.032542486 -0.024393234 -0.02426723 -0.017526202 -0.016348926 -0.008625849
0.0053195124 0.0059367535 0.018628126 -0.0041219145 -0.053594615 -0.074616194 -0.05133076 0.037288364
-0.027464049 -0.034513388 -0.059485756 -0.015748344 -0.010146957 -0.015758414 -0.0042958935 0.0038371454
-0.014116762 -0.030015623 -0.09399348 -0.023367217 -0.005965223 -0.031441778 -0.015769199 -0.0072268476
-0.0042688325 0.0039879545 0.04335011 -0.023426438 -0.010986857 0.0012791542 -0.0074758595 -0.06007481

Out.bias f4 [10]
00000000: fdbe a6bb cfd9 763c c791 573c 13b3 5abb
00000010: f774 c039 1070 80bb b98d ec39 ac46 19bc
00000020: 2af9 18bc 156c a33c
-0.0050886855 0.015066578 0.013157315 -0.0033370897 0.0003670824 -0.003919609 0.0004511902 -0.009355228
-0.009336749 0.019948998
